…
I0125 21:47:41.707000  6648 net.cpp:58] Initializing net from parameters: 
name: "CaffeNet"
state {
  phase: TRAIN
  level: 0
  stage: ""
}
layer {
  name: "data"
  type: "Data"
  top: "data"
  top: "label"
  include {
    phase: TRAIN
  }
  transform_param {
    mirror: true
    crop_size: 256
    mean_file: "C:/Users/Administrator/Desktop/Caffe_Using/caffe-master/data/myself/myimg_mean.binaryproto"
  }
  data_param {
    source: "C:/Users/Administrator/Desktop/Caffe_Using/caffe-master/data/myself/mytrainlmdb"
    batch_size: 32
    backend: LEVELDB
  }
}
layer {
  name: "conv1"
  type: "Convolution"
  bottom: "data"
  top: "conv1"
  param {
    lr_mult: 1
    decay_mult: 1
  }
  param {
    lr_mult: 2
    decay_mult: 0
  }
  convolution_param {
    num_output: 96
    kernel_size: 11
    stride: 4
    weight_filler {
      type: "gaussian"
      std: 0.01
    }
    bias_filler {
      type: "constant"
      value: 0
    }
  }
}
layer {
  name: "relu1"
  type: "ReLU"
  bottom: "conv1"
  top: "conv1"
}
layer {
  name: "pool1"
  type: "Pooling"
  bottom: "conv1"
  top: "pool1"
  pooling_param {
    pool: MAX
    kernel_size: 3
    stride: 2
  }
}
layer {
  name: "norm1"
  type: "LRN"
  bottom: "pool1"
  top: "norm1"
  lrn_param {
    local_size: 5
    alpha: 0.0001
    beta: 0.75
  }
}
layer {
  name: "conv2"
  type: "Convolution"
  bottom: "norm1"
  top: "conv2"
  param {
    lr_mult: 1
    decay_mult: 1
  }
  param {
    lr_mult: 2
    decay_mult: 0
  }
  convolution_param {
    num_output: 256
    pad: 2
    kernel_size: 5
    group: 2
    weight_filler {
      type: "gaussian"
      std: 0.01
    }
    bias_filler {
      type: "constant"
      value: 1
    }
  }
}
layer {
  name: "relu2"
  type: "ReLU"
  bottom: "conv2"
  top: "conv2"
}
layer {
  name: "pool2"
  type: "Pooling"
  bottom: "conv2"
  top: "pool2"
  pooling_param {
    pool: MAX
    kernel_size: 3
    stride: 2
  }
}
layer {
  name: "norm2"
  type: "LRN"
  bottom: "pool2"
  top: "norm2"
  lrn_param {
    local_size: 5
    alpha: 0.0001
    beta: 0.75
  }
}
layer {
  name: "conv3"
  type: "Convolution"
  bottom: "norm2"
  top: "conv3"
  param {
    lr_mult: 1
    decay_mult: 1
  }
  param {
    lr_mult: 2
    decay_mult: 0
  }
  convolution_param {
    num_output: 384
    pad: 1
    kernel_size: 3
    weight_filler {
      type: "gaussian"
      std: 0.01
    }
    bias_filler {
      type: "constant"
      value: 0
    }
  }
}
layer {
  name: "relu3"
  type: "ReLU"
  bottom: "conv3"
  top: "conv3"
}
layer {
  name: "conv4"
  type: "Convolution"
  bottom: "conv3"
  top: "conv4"
  param {
    lr_mult: 1
    decay_mult: 1
  }
  param {
    lr_mult: 2
    decay_mult: 0
  }
  convolution_param {
    num_output: 384
    pad: 1
    kernel_size: 3
    group: 2
    weight_filler {
      type: "gaussian"
      std: 0.01
    }
    bias_filler {
      type: "constant"
      value: 1
    }
  }
}
layer {
  name: "relu4"
  type: "ReLU"
  bottom: "conv4"
  top: "conv4"
}
layer {
  name: "conv5"
  type: "Convolution"
  bottom: "conv4"
  top: "conv5"
  param {
    lr_mult: 1
    decay_mult: 1
  }
  param {
    lr_mult: 2
    decay_mult: 0
  }
  convolution_param {
    num_output: 256
    pad: 1
    kernel_size: 3
    group: 2
    weight_filler {
      type: "gaussian"
      std: 0.01
    }
    bias_filler {
      type: "constant"
      value: 1
    }
  }
}
layer {
  name: "relu5"
  type: "ReLU"
  bottom: "conv5"
  top: "conv5"
}
layer {
  name: "pool5"
  type: "Pooling"
  bottom: "conv5"
  top: "pool5"
  pooling_param {
    pool: MAX
    kernel_size: 3
    stride: 2
  }
}
layer {
  name: "fc6"
  type: "InnerProduct"
  bottom: "pool5"
  top: "fc6"
  param {
    lr_mult: 1
    decay_mult: 1
  }
  param {
    lr_mult: 2
    decay_mult: 0
  }
  inner_product_param {
    num_output: 4096
    weight_filler {
      type: "gaussian"
      std: 0.005
    }
    bias_filler {
      type: "constant"
      value: 1
    }
  }
}
layer {
  name: "relu6"
  type: "ReLU"
  bottom: "fc6"
  top: "fc6"
}
layer {
  name: "drop6"
  type: "Dropout"
  bottom: "fc6"
  top: "fc6"
  dropout_param {
    dropout_ratio: 0.5
  }
}
layer {
  name: "fc7"
  type: "InnerProduct"
  bottom: "fc6"
  top: "fc7"
  param {
    lr_mult: 1
    decay_mult: 1
  }
  param {
    lr_mult: 2
    decay_mult: 0
  }
  inner_product_param {
    num_output: 4096
    weight_filler {
      type: "gaussian"
      std: 0.005
    }
    bias_filler {
      type: "constant"
      value: 1
    }
  }
}
layer {
  name: "relu7"
  type: "ReLU"
  bottom: "fc7"
  top: "fc7"
}
layer {
  name: "drop7"
  type: "Dropout"
  bottom: "fc7"
  top: "fc7"
  dropout_param {
    dropout_ratio: 0.5
  }
}
layer {
  name: "fc8"
  type: "InnerProduct"
  bottom: "fc7"
  top: "fc8"
  param {
    lr_mult: 1
    decay_mult: 1
  }
  param {
    lr_mult: 2
    decay_mult: 0
  }
  inner_product_param {
    num_output: 5
    weight_filler {
      type: "gaussian"
      std: 0.01
    }
    bias_filler {
      type: "constant"
      value: 0
    }
  }
}
layer {
  name: "loss"
  type: "SoftmaxWithLoss"
  bottom: "fc8"
  bottom: "label"
  top: "loss"
}
I0125 21:47:41.707999  6648 layer_factory.hpp:77] Creating layer data
I0125 21:47:41.707999  6648 common.cpp:36] System entropy source not available, using fallback algorithm to generate seed instead.
I0125 21:47:41.707999  6648 net.cpp:100] Creating Layer data
I0125 21:47:41.707999  6648 net.cpp:418] data -> data
I0125 21:47:41.707999  6648 net.cpp:418] data -> label
I0125 21:47:41.707999  6648 data_transformer.cpp:25] Loading mean file from: C:/Users/Administrator/Desktop/Caffe_Using/caffe-master/data/myself/myimg_mean.binaryproto
I0125 21:47:41.708999  5260 common.cpp:36] System entropy source not available, using fallback algorithm to generate seed instead.
I0125 21:47:41.720999  5260 db_leveldb.cpp:18] Opened leveldb C:/Users/Administrator/Desktop/Caffe_Using/caffe-master/data/myself/mytrainlmdb
I0125 21:47:41.735999  6648 data_layer.cpp:41] output data size: 32,3,256,256
I0125 21:47:41.781999  6648 net.cpp:150] Setting up data
I0125 21:47:41.781999  6648 net.cpp:157] Top shape: 32 3 256 256 (6291456)
I0125 21:47:41.781999  6648 net.cpp:157] Top shape: 32 (32)
I0125 21:47:41.781999  6648 net.cpp:165] Memory required for data: 25165952
I0125 21:47:41.781999  6648 layer_factory.hpp:77] Creating layer conv1
I0125 21:47:41.781999  6648 net.cpp:100] Creating Layer conv1
I0125 21:47:41.781999  6648 net.cpp:444] conv1 <- data
I0125 21:47:41.781999  6648 net.cpp:418] conv1 -> conv1
I0125 21:47:41.786000  3112 common.cpp:36] System entropy source not available, using fallback algorithm to generate seed instead.
I0125 21:47:42.100999  6648 net.cpp:150] Setting up conv1
I0125 21:47:42.100999  6648 net.cpp:157] Top shape: 32 96 62 62 (11808768)
I0125 21:47:42.100999  6648 net.cpp:165] Memory required for data: 72401024
I0125 21:47:42.100999  6648 layer_factory.hpp:77] Creating layer relu1
I0125 21:47:42.100999  6648 net.cpp:100] Creating Layer relu1
I0125 21:47:42.100999  6648 net.cpp:444] relu1 <- conv1
I0125 21:47:42.100999  6648 net.cpp:405] relu1 -> conv1 (in-place)
I0125 21:47:42.100999  6648 net.cpp:150] Setting up relu1
I0125 21:47:42.100999  6648 net.cpp:157] Top shape: 32 96 62 62 (11808768)
I0125 21:47:42.100999  6648 net.cpp:165] Memory required for data: 119636096
I0125 21:47:42.100999  6648 layer_factory.hpp:77] Creating layer pool1
I0125 21:47:42.100999  6648 net.cpp:100] Creating Layer pool1
I0125 21:47:42.100999  6648 net.cpp:444] pool1 <- conv1
I0125 21:47:42.100999  6648 net.cpp:418] pool1 -> pool1
I0125 21:47:42.100999  6648 net.cpp:150] Setting up pool1
I0125 21:47:42.100999  6648 net.cpp:157] Top shape: 32 96 31 31 (2952192)
I0125 21:47:42.100999  6648 net.cpp:165] Memory required for data: 131444864
I0125 21:47:42.100999  6648 layer_factory.hpp:77] Creating layer norm1
I0125 21:47:42.100999  6648 net.cpp:100] Creating Layer norm1
I0125 21:47:42.100999  6648 net.cpp:444] norm1 <- pool1
I0125 21:47:42.100999  6648 net.cpp:418] norm1 -> norm1
I0125 21:47:42.101999  6648 net.cpp:150] Setting up norm1
I0125 21:47:42.101999  6648 net.cpp:157] Top shape: 32 96 31 31 (2952192)
I0125 21:47:42.101999  6648 net.cpp:165] Memory required for data: 143253632
I0125 21:47:42.101999  6648 layer_factory.hpp:77] Creating layer conv2
I0125 21:47:42.101999  6648 net.cpp:100] Creating Layer conv2
I0125 21:47:42.101999  6648 net.cpp:444] conv2 <- norm1
I0125 21:47:42.101999  6648 net.cpp:418] conv2 -> conv2
I0125 21:47:42.106999  6648 net.cpp:150] Setting up conv2
I0125 21:47:42.106999  6648 net.cpp:157] Top shape: 32 256 31 31 (7872512)
I0125 21:47:42.106999  6648 net.cpp:165] Memory required for data: 174743680
I0125 21:47:42.106999  6648 layer_factory.hpp:77] Creating layer relu2
I0125 21:47:42.106999  6648 net.cpp:100] Creating Layer relu2
I0125 21:47:42.106999  6648 net.cpp:444] relu2 <- conv2
I0125 21:47:42.106999  6648 net.cpp:405] relu2 -> conv2 (in-place)
I0125 21:47:42.108000  6648 net.cpp:150] Setting up relu2
I0125 21:47:42.108000  6648 net.cpp:157] Top shape: 32 256 31 31 (7872512)
I0125 21:47:42.108000  6648 net.cpp:165] Memory required for data: 206233728
I0125 21:47:42.108000  6648 layer_factory.hpp:77] Creating layer pool2
I0125 21:47:42.108000  6648 net.cpp:100] Creating Layer pool2
I0125 21:47:42.108000  6648 net.cpp:444] pool2 <- conv2
I0125 21:47:42.108000  6648 net.cpp:418] pool2 -> pool2
I0125 21:47:42.108000  6648 net.cpp:150] Setting up pool2
I0125 21:47:42.108000  6648 net.cpp:157] Top shape: 32 256 15 15 (1843200)
I0125 21:47:42.108000  6648 net.cpp:165] Memory required for data: 213606528
I0125 21:47:42.108000  6648 layer_factory.hpp:77] Creating layer norm2
I0125 21:47:42.108000  6648 net.cpp:100] Creating Layer norm2
I0125 21:47:42.108000  6648 net.cpp:444] norm2 <- pool2
I0125 21:47:42.108000  6648 net.cpp:418] norm2 -> norm2
I0125 21:47:42.108000  6648 net.cpp:150] Setting up norm2
I0125 21:47:42.108000  6648 net.cpp:157] Top shape: 32 256 15 15 (1843200)
I0125 21:47:42.108000  6648 net.cpp:165] Memory required for data: 220979328
I0125 21:47:42.108000  6648 layer_factory.hpp:77] Creating layer conv3
I0125 21:47:42.108000  6648 net.cpp:100] Creating Layer conv3
I0125 21:47:42.108000  6648 net.cpp:444] conv3 <- norm2
I0125 21:47:42.108000  6648 net.cpp:418] conv3 -> conv3
I0125 21:47:42.119999  6648 net.cpp:150] Setting up conv3
I0125 21:47:42.119999  6648 net.cpp:157] Top shape: 32 384 15 15 (2764800)
I0125 21:47:42.119999  6648 net.cpp:165] Memory required for data: 232038528
I0125 21:47:42.119999  6648 layer_factory.hpp:77] Creating layer relu3
I0125 21:47:42.119999  6648 net.cpp:100] Creating Layer relu3
I0125 21:47:42.119999  6648 net.cpp:444] relu3 <- conv3
I0125 21:47:42.119999  6648 net.cpp:405] relu3 -> conv3 (in-place)
I0125 21:47:42.119999  6648 net.cpp:150] Setting up relu3
I0125 21:47:42.119999  6648 net.cpp:157] Top shape: 32 384 15 15 (2764800)
I0125 21:47:42.120999  6648 net.cpp:165] Memory required for data: 243097728
I0125 21:47:42.120999  6648 layer_factory.hpp:77] Creating layer conv4
I0125 21:47:42.120999  6648 net.cpp:100] Creating Layer conv4
I0125 21:47:42.120999  6648 net.cpp:444] conv4 <- conv3
I0125 21:47:42.120999  6648 net.cpp:418] conv4 -> conv4
I0125 21:47:42.129999  6648 net.cpp:150] Setting up conv4
I0125 21:47:42.129999  6648 net.cpp:157] Top shape: 32 384 15 15 (2764800)
I0125 21:47:42.129999  6648 net.cpp:165] Memory required for data: 254156928
I0125 21:47:42.129999  6648 layer_factory.hpp:77] Creating layer relu4
I0125 21:47:42.129999  6648 net.cpp:100] Creating Layer relu4
I0125 21:47:42.129999  6648 net.cpp:444] relu4 <- conv4
I0125 21:47:42.129999  6648 net.cpp:405] relu4 -> conv4 (in-place)
I0125 21:47:42.131000  6648 net.cpp:150] Setting up relu4
I0125 21:47:42.131000  6648 net.cpp:157] Top shape: 32 384 15 15 (2764800)
I0125 21:47:42.131000  6648 net.cpp:165] Memory required for data: 265216128
I0125 21:47:42.131000  6648 layer_factory.hpp:77] Creating layer conv5
I0125 21:47:42.131000  6648 net.cpp:100] Creating Layer conv5
I0125 21:47:42.131000  6648 net.cpp:444] conv5 <- conv4
I0125 21:47:42.131000  6648 net.cpp:418] conv5 -> conv5
I0125 21:47:42.138999  6648 net.cpp:150] Setting up conv5
I0125 21:47:42.138999  6648 net.cpp:157] Top shape: 32 256 15 15 (1843200)
I0125 21:47:42.138999  6648 net.cpp:165] Memory required for data: 272588928
I0125 21:47:42.138999  6648 layer_factory.hpp:77] Creating layer relu5
I0125 21:47:42.138999  6648 net.cpp:100] Creating Layer relu5
I0125 21:47:42.138999  6648 net.cpp:444] relu5 <- conv5
I0125 21:47:42.138999  6648 net.cpp:405] relu5 -> conv5 (in-place)
I0125 21:47:42.138999  6648 net.cpp:150] Setting up relu5
I0125 21:47:42.138999  6648 net.cpp:157] Top shape: 32 256 15 15 (1843200)
I0125 21:47:42.138999  6648 net.cpp:165] Memory required for data: 279961728
I0125 21:47:42.138999  6648 layer_factory.hpp:77] Creating layer pool5
I0125 21:47:42.138999  6648 net.cpp:100] Creating Layer pool5
I0125 21:47:42.138999  6648 net.cpp:444] pool5 <- conv5
I0125 21:47:42.138999  6648 net.cpp:418] pool5 -> pool5
I0125 21:47:42.138999  6648 net.cpp:150] Setting up pool5
I0125 21:47:42.138999  6648 net.cpp:157] Top shape: 32 256 7 7 (401408)
I0125 21:47:42.138999  6648 net.cpp:165] Memory required for data: 281567360
I0125 21:47:42.138999  6648 layer_factory.hpp:77] Creating layer fc6
I0125 21:47:42.138999  6648 net.cpp:100] Creating Layer fc6
I0125 21:47:42.138999  6648 net.cpp:444] fc6 <- pool5
I0125 21:47:42.138999  6648 net.cpp:418] fc6 -> fc6
I0125 21:47:42.636999  6648 net.cpp:150] Setting up fc6
I0125 21:47:42.636999  6648 net.cpp:157] Top shape: 32 4096 (131072)
I0125 21:47:42.636999  6648 net.cpp:165] Memory required for data: 282091648
I0125 21:47:42.636999  6648 layer_factory.hpp:77] Creating layer relu6
I0125 21:47:42.636999  6648 net.cpp:100] Creating Layer relu6
I0125 21:47:42.636999  6648 net.cpp:444] relu6 <- fc6
I0125 21:47:42.636999  6648 net.cpp:405] relu6 -> fc6 (in-place)
I0125 21:47:42.638000  6648 net.cpp:150] Setting up relu6
I0125 21:47:42.638000  6648 net.cpp:157] Top shape: 32 4096 (131072)
I0125 21:47:42.638000  6648 net.cpp:165] Memory required for data: 282615936
I0125 21:47:42.638000  6648 layer_factory.hpp:77] Creating layer drop6
I0125 21:47:42.638000  6648 net.cpp:100] Creating Layer drop6
I0125 21:47:42.638000  6648 net.cpp:444] drop6 <- fc6
I0125 21:47:42.638000  6648 net.cpp:405] drop6 -> fc6 (in-place)
I0125 21:47:42.638000  6648 net.cpp:150] Setting up drop6
I0125 21:47:42.638000  6648 net.cpp:157] Top shape: 32 4096 (131072)
I0125 21:47:42.638000  6648 net.cpp:165] Memory required for data: 283140224
I0125 21:47:42.638000  6648 layer_factory.hpp:77] Creating layer fc7
I0125 21:47:42.638000  6648 net.cpp:100] Creating Layer fc7
I0125 21:47:42.638000  6648 net.cpp:444] fc7 <- fc6
I0125 21:47:42.638000  6648 net.cpp:418] fc7 -> fc7
I0125 21:47:42.792999  6648 net.cpp:150] Setting up fc7
I0125 21:47:42.792999  6648 net.cpp:157] Top shape: 32 4096 (131072)
I0125 21:47:42.792999  6648 net.cpp:165] Memory required for data: 283664512
I0125 21:47:42.792999  6648 layer_factory.hpp:77] Creating layer relu7
I0125 21:47:42.792999  6648 net.cpp:100] Creating Layer relu7
I0125 21:47:42.792999  6648 net.cpp:444] relu7 <- fc7
I0125 21:47:42.792999  6648 net.cpp:405] relu7 -> fc7 (in-place)
I0125 21:47:42.792999  6648 net.cpp:150] Setting up relu7
I0125 21:47:42.792999  6648 net.cpp:157] Top shape: 32 4096 (131072)
I0125 21:47:42.792999  6648 net.cpp:165] Memory required for data: 284188800
I0125 21:47:42.792999  6648 layer_factory.hpp:77] Creating layer drop7
I0125 21:47:42.792999  6648 net.cpp:100] Creating Layer drop7
I0125 21:47:42.792999  6648 net.cpp:444] drop7 <- fc7
I0125 21:47:42.792999  6648 net.cpp:405] drop7 -> fc7 (in-place)
I0125 21:47:42.792999  6648 net.cpp:150] Setting up drop7
I0125 21:47:42.792999  6648 net.cpp:157] Top shape: 32 4096 (131072)
I0125 21:47:42.792999  6648 net.cpp:165] Memory required for data: 284713088
I0125 21:47:42.792999  6648 layer_factory.hpp:77] Creating layer fc8
I0125 21:47:42.792999  6648 net.cpp:100] Creating Layer fc8
I0125 21:47:42.792999  6648 net.cpp:444] fc8 <- fc7
I0125 21:47:42.792999  6648 net.cpp:418] fc8 -> fc8
I0125 21:47:42.793999  6648 net.cpp:150] Setting up fc8
I0125 21:47:42.793999  6648 net.cpp:157] Top shape: 32 5 (160)
I0125 21:47:42.793999  6648 net.cpp:165] Memory required for data: 284713728
I0125 21:47:42.793999  6648 layer_factory.hpp:77] Creating layer loss
I0125 21:47:42.793999  6648 net.cpp:100] Creating Layer loss
I0125 21:47:42.793999  6648 net.cpp:444] loss <- fc8
I0125 21:47:42.793999  6648 net.cpp:444] loss <- label
I0125 21:47:42.793999  6648 net.cpp:418] loss -> loss
I0125 21:47:42.793999  6648 layer_factory.hpp:77] Creating layer loss
…
I0125 21:47:42.794999  6648 net.cpp:58] Initializing net from parameters: 
name: "CaffeNet"
state {
  phase: TEST
}
layer {
  name: "data"
  type: "Data"
  top: "data"
  top: "label"
  include {
    phase: TEST
  }
  transform_param {
    mirror: false
    crop_size: 256
    mean_file: "C:/Users/Administrator/Desktop/Caffe_Using/caffe-master/data/myself/myimg_mean.binaryproto"
  }
  data_param {
    source: "C:/Users/Administrator/Desktop/Caffe_Using/caffe-master/data/myself/myvallmdb"
    batch_size: 50
    backend: LEVELDB
  }
}
layer {
  name: "conv1"
  type: "Convolution"
  bottom: "data"
  top: "conv1"
  param {
    lr_mult: 1
    decay_mult: 1
  }
  param {
    lr_mult: 2
    decay_mult: 0
  }
  convolution_param {
    num_output: 96
    kernel_size: 11
    stride: 4
    weight_filler {
      type: "gaussian"
      std: 0.01
    }
    bias_filler {
      type: "constant"
      value: 0
    }
  }
}
layer {
  name: "relu1"
  type: "ReLU"
  bottom: "conv1"
  top: "conv1"
}
layer {
  name: "pool1"
  type: "Pooling"
  bottom: "conv1"
  top: "pool1"
  pooling_param {
    pool: MAX
    kernel_size: 3
    stride: 2
  }
}
layer {
  name: "norm1"
  type: "LRN"
  bottom: "pool1"
  top: "norm1"
  lrn_param {
    local_size: 5
    alpha: 0.0001
    beta: 0.75
  }
}
layer {
  name: "conv2"
  type: "Convolution"
  bottom: "norm1"
  top: "conv2"
  param {
    lr_mult: 1
    decay_mult: 1
  }
  param {
    lr_mult: 2
    decay_mult: 0
  }
  convolution_param {
    num_output: 256
    pad: 2
    kernel_size: 5
    group: 2
    weight_filler {
      type: "gaussian"
      std: 0.01
    }
    bias_filler {
      type: "constant"
      value: 1
    }
  }
}
layer {
  name: "relu2"
  type: "ReLU"
  bottom: "conv2"
  top: "conv2"
}
layer {
  name: "pool2"
  type: "Pooling"
  bottom: "conv2"
  top: "pool2"
  pooling_param {
    pool: MAX
    kernel_size: 3
    stride: 2
  }
}
layer {
  name: "norm2"
  type: "LRN"
  bottom: "pool2"
  top: "norm2"
  lrn_param {
    local_size: 5
    alpha: 0.0001
    beta: 0.75
  }
}
layer {
  name: "conv3"
  type: "Convolution"
  bottom: "norm2"
  top: "conv3"
  param {
    lr_mult: 1
    decay_mult: 1
  }
  param {
    lr_mult: 2
    decay_mult: 0
  }
  convolution_param {
    num_output: 384
    pad: 1
    kernel_size: 3
    weight_filler {
      type: "gaussian"
      std: 0.01
    }
    bias_filler {
      type: "constant"
      value: 0
    }
  }
}
layer {
  name: "relu3"
  type: "ReLU"
  bottom: "conv3"
  top: "conv3"
}
layer {
  name: "conv4"
  type: "Convolution"
  bottom: "conv3"
  top: "conv4"
  param {
    lr_mult: 1
    decay_mult: 1
  }
  param {
    lr_mult: 2
    decay_mult: 0
  }
  convolution_param {
    num_output: 384
    pad: 1
    kernel_size: 3
    group: 2
    weight_filler {
      type: "gaussian"
      std: 0.01
    }
    bias_filler {
      type: "constant"
      value: 1
    }
  }
}
layer {
  name: "relu4"
  type: "ReLU"
  bottom: "conv4"
  top: "conv4"
}
layer {
  name: "conv5"
  type: "Convolution"
  bottom: "conv4"
  top: "conv5"
  param {
    lr_mult: 1
    decay_mult: 1
  }
  param {
    lr_mult: 2
    decay_mult: 0
  }
  convolution_param {
    num_output: 256
    pad: 1
    kernel_size: 3
    group: 2
    weight_filler {
      type: "gaussian"
      std: 0.01
    }
    bias_filler {
      type: "constant"
      value: 1
    }
  }
}
layer {
  name: "relu5"
  type: "ReLU"
  bottom: "conv5"
  top: "conv5"
}
layer {
  name: "pool5"
  type: "Pooling"
  bottom: "conv5"
  top: "pool5"
  pooling_param {
    pool: MAX
    kernel_size: 3
    stride: 2
  }
}
layer {
  name: "fc6"
  type: "InnerProduct"
  bottom: "pool5"
  top: "fc6"
  param {
    lr_mult: 1
    decay_mult: 1
  }
  param {
    lr_mult: 2
    decay_mult: 0
  }
  inner_product_param {
    num_output: 4096
    weight_filler {
      type: "gaussian"
      std: 0.005
    }
    bias_filler {
      type: "constant"
      value: 1
    }
  }
}
layer {
  name: "relu6"
  type: "ReLU"
  bottom: "fc6"
  top: "fc6"
}
layer {
  name: "drop6"
  type: "Dropout"
  bottom: "fc6"
  top: "fc6"
  dropout_param {
    dropout_ratio: 0.5
  }
}
layer {
  name: "fc7"
  type: "InnerProduct"
  bottom: "fc6"
  top: "fc7"
  param {
    lr_mult: 1
    decay_mult: 1
  }
  param {
    lr_mult: 2
    decay_mult: 0
  }
  inner_product_param {
    num_output: 4096
    weight_filler {
      type: "gaussian"
      std: 0.005
    }
    bias_filler {
      type: "constant"
      value: 1
    }
  }
}
layer {
  name: "relu7"
  type: "ReLU"
  bottom: "fc7"
  top: "fc7"
}
layer {
  name: "drop7"
  type: "Dropout"
  bottom: "fc7"
  top: "fc7"
  dropout_param {
    dropout_ratio: 0.5
  }
}
layer {
  name: "fc8"
  type: "InnerProduct"
  bottom: "fc7"
  top: "fc8"
  param {
    lr_mult: 1
    decay_mult: 1
  }
  param {
    lr_mult: 2
    decay_mult: 0
  }
  inner_product_param {
    num_output: 5
    weight_filler {
      type: "gaussian"
      std: 0.01
    }
    bias_filler {
      type: "constant"
      value: 0
    }
  }
}
layer {
  name: "accuracy"
  type: "Accuracy"
  bottom: "fc8"
  bottom: "label"
  top: "accuracy"
  include {
    phase: TEST
  }
}
layer {
  name: "loss"
  type: "SoftmaxWithLoss"
  bottom: "fc8"
  bottom: "label"
  top: "loss"
}
I0125 21:47:42.794999  6648 layer_factory.hpp:77] Creating layer data
I0125 21:47:42.794999  6648 net.cpp:100] Creating Layer data
I0125 21:47:42.794999  6648 net.cpp:418] data -> data
I0125 21:47:42.794999  6648 net.cpp:418] data -> label
I0125 21:47:42.794999  6648 data_transformer.cpp:25] Loading mean file from: C:/Users/Administrator/Desktop/Caffe_Using/caffe-master/data/myself/myimg_mean.binaryproto
I0125 21:47:42.796999  5504 common.cpp:36] System entropy source not available, using fallback algorithm to generate seed instead.
I0125 21:47:42.799999  5504 db_leveldb.cpp:18] Opened leveldb C:/Users/Administrator/Desktop/Caffe_Using/caffe-master/data/myself/myvallmdb
I0125 21:47:42.800999  6648 data_layer.cpp:41] output data size: 50,3,256,256
I0125 21:47:42.856999  6648 net.cpp:150] Setting up data
I0125 21:47:42.856999  6648 net.cpp:157] Top shape: 50 3 256 256 (9830400)
I0125 21:47:42.856999  6648 net.cpp:157] Top shape: 50 (50)
I0125 21:47:42.856999  6648 net.cpp:165] Memory required for data: 39321800
I0125 21:47:42.856999  6648 layer_factory.hpp:77] Creating layer label_data_1_split
I0125 21:47:42.856999  6648 net.cpp:100] Creating Layer label_data_1_split
I0125 21:47:42.856999  6648 net.cpp:444] label_data_1_split <- label
I0125 21:47:42.856999  6648 net.cpp:418] label_data_1_split -> label_data_1_split_0
I0125 21:47:42.856999  6648 net.cpp:418] label_data_1_split -> label_data_1_split_1
I0125 21:47:42.856999  6648 net.cpp:150] Setting up label_data_1_split
I0125 21:47:42.856999  6648 net.cpp:157] Top shape: 50 (50)
I0125 21:47:42.856999  6648 net.cpp:157] Top shape: 50 (50)
I0125 21:47:42.856999  6648 net.cpp:165] Memory required for data: 39322200
I0125 21:47:42.856999  6648 layer_factory.hpp:77] Creating layer conv1
I0125 21:47:42.856999  6648 net.cpp:100] Creating Layer conv1
I0125 21:47:42.856999  6648 net.cpp:444] conv1 <- data
I0125 21:47:42.856999  6648 net.cpp:418] conv1 -> conv1
I0125 21:47:42.858999  6648 net.cpp:150] Setting up conv1
I0125 21:47:42.858999  6648 net.cpp:157] Top shape: 50 96 62 62 (18451200)
I0125 21:47:42.858999  6648 net.cpp:165] Memory required for data: 113127000
I0125 21:47:42.858999  6648 layer_factory.hpp:77] Creating layer relu1
I0125 21:47:42.858999  6648 net.cpp:100] Creating Layer relu1
I0125 21:47:42.858999  6648 net.cpp:444] relu1 <- conv1
I0125 21:47:42.858999  6648 net.cpp:405] relu1 -> conv1 (in-place)
I0125 21:47:42.858999  6648 net.cpp:150] Setting up relu1
I0125 21:47:42.858999  6648 net.cpp:157] Top shape: 50 96 62 62 (18451200)
I0125 21:47:42.858999  6648 net.cpp:165] Memory required for data: 186931800
I0125 21:47:42.858999  6648 layer_factory.hpp:77] Creating layer pool1
I0125 21:47:42.858999  6648 net.cpp:100] Creating Layer pool1
I0125 21:47:42.858999  6648 net.cpp:444] pool1 <- conv1
I0125 21:47:42.858999  6648 net.cpp:418] pool1 -> pool1
I0125 21:47:42.859999  6648 net.cpp:150] Setting up pool1
I0125 21:47:42.859999  6648 net.cpp:157] Top shape: 50 96 31 31 (4612800)
I0125 21:47:42.859999  6648 net.cpp:165] Memory required for data: 205383000
I0125 21:47:42.859999  6648 layer_factory.hpp:77] Creating layer norm1
I0125 21:47:42.859999  6648 net.cpp:100] Creating Layer norm1
I0125 21:47:42.859999  6648 net.cpp:444] norm1 <- pool1
I0125 21:47:42.859999  6648 net.cpp:418] norm1 -> norm1
I0125 21:47:42.859999  6648 net.cpp:150] Setting up norm1
I0125 21:47:42.859999  6648 net.cpp:157] Top shape: 50 96 31 31 (4612800)
I0125 21:47:42.859999  6648 net.cpp:165] Memory required for data: 223834200
I0125 21:47:42.859999  6648 layer_factory.hpp:77] Creating layer conv2
I0125 21:47:42.859999  6648 net.cpp:100] Creating Layer conv2
I0125 21:47:42.859999  6648 net.cpp:444] conv2 <- norm1
I0125 21:47:42.859999  6648 net.cpp:418] conv2 -> conv2
I0125 21:47:42.860999  4284 common.cpp:36] System entropy source not available, using fallback algorithm to generate seed instead.
I0125 21:47:42.866999  6648 net.cpp:150] Setting up conv2
I0125 21:47:42.866999  6648 net.cpp:157] Top shape: 50 256 31 31 (12300800)
I0125 21:47:42.866999  6648 net.cpp:165] Memory required for data: 273037400
I0125 21:47:42.866999  6648 layer_factory.hpp:77] Creating layer relu2
I0125 21:47:42.866999  6648 net.cpp:100] Creating Layer relu2
I0125 21:47:42.866999  6648 net.cpp:444] relu2 <- conv2
I0125 21:47:42.866999  6648 net.cpp:405] relu2 -> conv2 (in-place)
I0125 21:47:42.868000  6648 net.cpp:150] Setting up relu2
I0125 21:47:42.868000  6648 net.cpp:157] Top shape: 50 256 31 31 (12300800)
I0125 21:47:42.868000  6648 net.cpp:165] Memory required for data: 322240600
I0125 21:47:42.868000  6648 layer_factory.hpp:77] Creating layer pool2
I0125 21:47:42.868000  6648 net.cpp:100] Creating Layer pool2
I0125 21:47:42.868000  6648 net.cpp:444] pool2 <- conv2
I0125 21:47:42.868000  6648 net.cpp:418] pool2 -> pool2
I0125 21:47:42.868000  6648 net.cpp:150] Setting up pool2
I0125 21:47:42.868000  6648 net.cpp:157] Top shape: 50 256 15 15 (2880000)
I0125 21:47:42.868000  6648 net.cpp:165] Memory required for data: 333760600
I0125 21:47:42.868000  6648 layer_factory.hpp:77] Creating layer norm2
I0125 21:47:42.868000  6648 net.cpp:100] Creating Layer norm2
I0125 21:47:42.868000  6648 net.cpp:444] norm2 <- pool2
I0125 21:47:42.868000  6648 net.cpp:418] norm2 -> norm2
I0125 21:47:42.868999  6648 net.cpp:150] Setting up norm2
I0125 21:47:42.868999  6648 net.cpp:157] Top shape: 50 256 15 15 (2880000)
I0125 21:47:42.868999  6648 net.cpp:165] Memory required for data: 345280600
I0125 21:47:42.868999  6648 layer_factory.hpp:77] Creating layer conv3
I0125 21:47:42.868999  6648 net.cpp:100] Creating Layer conv3
I0125 21:47:42.868999  6648 net.cpp:444] conv3 <- norm2
I0125 21:47:42.868999  6648 net.cpp:418] conv3 -> conv3
I0125 21:47:42.879999  6648 net.cpp:150] Setting up conv3
I0125 21:47:42.879999  6648 net.cpp:157] Top shape: 50 384 15 15 (4320000)
I0125 21:47:42.879999  6648 net.cpp:165] Memory required for data: 362560600
I0125 21:47:42.879999  6648 layer_factory.hpp:77] Creating layer relu3
I0125 21:47:42.879999  6648 net.cpp:100] Creating Layer relu3
I0125 21:47:42.879999  6648 net.cpp:444] relu3 <- conv3
I0125 21:47:42.879999  6648 net.cpp:405] relu3 -> conv3 (in-place)
I0125 21:47:42.881000  6648 net.cpp:150] Setting up relu3
I0125 21:47:42.881000  6648 net.cpp:157] Top shape: 50 384 15 15 (4320000)
I0125 21:47:42.881000  6648 net.cpp:165] Memory required for data: 379840600
I0125 21:47:42.881000  6648 layer_factory.hpp:77] Creating layer conv4
I0125 21:47:42.881000  6648 net.cpp:100] Creating Layer conv4
I0125 21:47:42.881000  6648 net.cpp:444] conv4 <- conv3
I0125 21:47:42.881000  6648 net.cpp:418] conv4 -> conv4
I0125 21:47:42.896999  6648 net.cpp:150] Setting up conv4
I0125 21:47:42.896999  6648 net.cpp:157] Top shape: 50 384 15 15 (4320000)
I0125 21:47:42.896999  6648 net.cpp:165] Memory required for data: 397120600
I0125 21:47:42.896999  6648 layer_factory.hpp:77] Creating layer relu4
I0125 21:47:42.896999  6648 net.cpp:100] Creating Layer relu4
I0125 21:47:42.896999  6648 net.cpp:444] relu4 <- conv4
I0125 21:47:42.896999  6648 net.cpp:405] relu4 -> conv4 (in-place)
I0125 21:47:42.896999  6648 net.cpp:150] Setting up relu4
I0125 21:47:42.896999  6648 net.cpp:157] Top shape: 50 384 15 15 (4320000)
I0125 21:47:42.896999  6648 net.cpp:165] Memory required for data: 414400600
I0125 21:47:42.896999  6648 layer_factory.hpp:77] Creating layer conv5
I0125 21:47:42.896999  6648 net.cpp:100] Creating Layer conv5
I0125 21:47:42.896999  6648 net.cpp:444] conv5 <- conv4
I0125 21:47:42.896999  6648 net.cpp:418] conv5 -> conv5
I0125 21:47:42.906999  6648 net.cpp:150] Setting up conv5
I0125 21:47:42.906999  6648 net.cpp:157] Top shape: 50 256 15 15 (2880000)
I0125 21:47:42.906999  6648 net.cpp:165] Memory required for data: 425920600
I0125 21:47:42.906999  6648 layer_factory.hpp:77] Creating layer relu5
I0125 21:47:42.906999  6648 net.cpp:100] Creating Layer relu5
I0125 21:47:42.906999  6648 net.cpp:444] relu5 <- conv5
I0125 21:47:42.906999  6648 net.cpp:405] relu5 -> conv5 (in-place)
I0125 21:47:42.907999  6648 net.cpp:150] Setting up relu5
I0125 21:47:42.907999  6648 net.cpp:157] Top shape: 50 256 15 15 (2880000)
I0125 21:47:42.907999  6648 net.cpp:165] Memory required for data: 437440600
I0125 21:47:42.907999  6648 layer_factory.hpp:77] Creating layer pool5
I0125 21:47:42.907999  6648 net.cpp:100] Creating Layer pool5
I0125 21:47:42.907999  6648 net.cpp:444] pool5 <- conv5
I0125 21:47:42.907999  6648 net.cpp:418] pool5 -> pool5
I0125 21:47:42.907999  6648 net.cpp:150] Setting up pool5
I0125 21:47:42.907999  6648 net.cpp:157] Top shape: 50 256 7 7 (627200)
I0125 21:47:42.907999  6648 net.cpp:165] Memory required for data: 439949400
I0125 21:47:42.907999  6648 layer_factory.hpp:77] Creating layer fc6
I0125 21:47:42.907999  6648 net.cpp:100] Creating Layer fc6
I0125 21:47:42.907999  6648 net.cpp:444] fc6 <- pool5
I0125 21:47:42.907999  6648 net.cpp:418] fc6 -> fc6
I0125 21:47:43.408999  6648 net.cpp:150] Setting up fc6
I0125 21:47:43.408999  6648 net.cpp:157] Top shape: 50 4096 (204800)
I0125 21:47:43.408999  6648 net.cpp:165] Memory required for data: 440768600
I0125 21:47:43.408999  6648 layer_factory.hpp:77] Creating layer relu6
I0125 21:47:43.408999  6648 net.cpp:100] Creating Layer relu6
I0125 21:47:43.408999  6648 net.cpp:444] relu6 <- fc6
I0125 21:47:43.408999  6648 net.cpp:405] relu6 -> fc6 (in-place)
I0125 21:47:43.408999  6648 net.cpp:150] Setting up relu6
I0125 21:47:43.408999  6648 net.cpp:157] Top shape: 50 4096 (204800)
I0125 21:47:43.408999  6648 net.cpp:165] Memory required for data: 441587800
I0125 21:47:43.408999  6648 layer_factory.hpp:77] Creating layer drop6
I0125 21:47:43.408999  6648 net.cpp:100] Creating Layer drop6
I0125 21:47:43.408999  6648 net.cpp:444] drop6 <- fc6
I0125 21:47:43.408999  6648 net.cpp:405] drop6 -> fc6 (in-place)
I0125 21:47:43.408999  6648 net.cpp:150] Setting up drop6
I0125 21:47:43.408999  6648 net.cpp:157] Top shape: 50 4096 (204800)
I0125 21:47:43.408999  6648 net.cpp:165] Memory required for data: 442407000
I0125 21:47:43.408999  6648 layer_factory.hpp:77] Creating layer fc7
I0125 21:47:43.408999  6648 net.cpp:100] Creating Layer fc7
I0125 21:47:43.408999  6648 net.cpp:444] fc7 <- fc6
I0125 21:47:43.408999  6648 net.cpp:418] fc7 -> fc7
I0125 21:47:43.566999  6648 net.cpp:150] Setting up fc7
I0125 21:47:43.566999  6648 net.cpp:157] Top shape: 50 4096 (204800)
I0125 21:47:43.566999  6648 net.cpp:165] Memory required for data: 443226200
I0125 21:47:43.566999  6648 layer_factory.hpp:77] Creating layer relu7
I0125 21:47:43.566999  6648 net.cpp:100] Creating Layer relu7
I0125 21:47:43.566999  6648 net.cpp:444] relu7 <- fc7
I0125 21:47:43.566999  6648 net.cpp:405] relu7 -> fc7 (in-place)
I0125 21:47:43.567999  6648 net.cpp:150] Setting up relu7
I0125 21:47:43.567999  6648 net.cpp:157] Top shape: 50 4096 (204800)
I0125 21:47:43.567999  6648 net.cpp:165] Memory required for data: 444045400
I0125 21:47:43.567999  6648 layer_factory.hpp:77] Creating layer drop7
I0125 21:47:43.567999  6648 net.cpp:100] Creating Layer drop7
I0125 21:47:43.567999  6648 net.cpp:444] drop7 <- fc7
I0125 21:47:43.567999  6648 net.cpp:405] drop7 -> fc7 (in-place)
I0125 21:47:43.567999  6648 net.cpp:150] Setting up drop7
I0125 21:47:43.567999  6648 net.cpp:157] Top shape: 50 4096 (204800)
I0125 21:47:43.567999  6648 net.cpp:165] Memory required for data: 444864600
I0125 21:47:43.567999  6648 layer_factory.hpp:77] Creating layer fc8
I0125 21:47:43.567999  6648 net.cpp:100] Creating Layer fc8
I0125 21:47:43.567999  6648 net.cpp:444] fc8 <- fc7
I0125 21:47:43.567999  6648 net.cpp:418] fc8 -> fc8
I0125 21:47:43.569000  6648 net.cpp:150] Setting up fc8
I0125 21:47:43.569000  6648 net.cpp:157] Top shape: 50 5 (250)
I0125 21:47:43.569000  6648 net.cpp:165] Memory required for data: 444865600
I0125 21:47:43.569000  6648 layer_factory.hpp:77] Creating layer fc8_fc8_0_split
I0125 21:47:43.569000  6648 net.cpp:100] Creating Layer fc8_fc8_0_split
I0125 21:47:43.569000  6648 net.cpp:444] fc8_fc8_0_split <- fc8
I0125 21:47:43.569000  6648 net.cpp:418] fc8_fc8_0_split -> fc8_fc8_0_split_0
I0125 21:47:43.569000  6648 net.cpp:418] fc8_fc8_0_split -> fc8_fc8_0_split_1
I0125 21:47:43.569000  6648 net.cpp:150] Setting up fc8_fc8_0_split
I0125 21:47:43.569000  6648 net.cpp:157] Top shape: 50 5 (250)
I0125 21:47:43.569000  6648 net.cpp:157] Top shape: 50 5 (250)
I0125 21:47:43.569000  6648 net.cpp:165] Memory required for data: 444867600
I0125 21:47:43.569000  6648 layer_factory.hpp:77] Creating layer accuracy
I0125 21:47:43.569000  6648 net.cpp:100] Creating Layer accuracy
I0125 21:47:43.569000  6648 net.cpp:444] accuracy <- fc8_fc8_0_split_0
I0125 21:47:43.569000  6648 net.cpp:444] accuracy <- label_data_1_split_0
I0125 21:47:43.569000  6648 net.cpp:418] accuracy -> accuracy
…
